assets/models/ai_nav_model_quant.tflite (tflite, 5920 bytes, 8 tensors)

arith.constant f4 [6]
0.029688139 -0.054200854 -0.05462973 -0.08582176 -0.069067724 0.114871696
00000000: 8a34 f33c b701 5ebd 6cc3 5fbd 52c3 afbd
00000010: 6173 8dbd da41 eb3d

arith.constant1 f4 [24]
-0.0298348 0.080177195 0.020512076 0.054583535 0.11827354 -0.021783203 -0.035403047 0.08360424
-0.038790584 -0.059936106 0.01871199 0.017074043 0.12591073 -0.004143074 0.027623696 0.05142471
0.13499883 0.028431365 -0.036071245 -0.02121037 -0.0880297 0.031418093 0.0054160464 0.027036468
00000000: 1c68 f4bc f133 a43d f108 a83c fc92 5f3d
00000010: 6639 f23d b072 b2bc c902 11bd b338 ab3d
00000020: e0e2 1ebd 907f 75bd e349 993c ddde 8b3c
00000030: beee 003e a0c2 87bb 174b e23c b7a2 523d
00000040: 223d 0a3e e5e8 e83c 71bf 13bd 5fc1 adbc
00000050: ea48 b4bd 42b0 003d 1779 b13b 957b dd3c

arith.constant2 f4 [48]
-0.030495502 -0.004526327 -0.01473252 0.026018249 0.010297299 -0.0547463 -0.06861473 0.041274976
-0.024632331 -0.08351365 -0.06755125 0.0107473275 0.039043494 -0.039049257 -0.017774206 -0.0003769289
-0.041924868 -0.0042662206 -0.018136492 0.0015662176 -0.026837457 -0.0588394 0.056000855 -0.010470735
0.022553863 0.076008536 -0.08842582 -0.02508136 0.026727548 -0.06507792 -0.08495281 -0.001101506
-0.1346741 -0.07132435 0.07414215 0.0022152467 -0.022649487 -0.0547847 -0.032916322 -0.046033915
-0.050841577 0.053705763 -0.06542072 -0.017216414 0.020096986 0.018204212 0.06248954 0.10333784
00000000: b4d1 f9bc 9551 94bb ab60 71bc 3924 d53c
00000010: 01b6 283c a83d 60bd e185 8cbd f30f 293d
00000020: bec9 c9bc 3409 abbd 4f58 8abd 8f15 303c
00000030: 12ec 1f3d 1df2 1fbd 369b 91bc 8a9e c5b9
00000040: 69b9 2bbd a7cb 8bbb fb92 94bc 8b49 cd3a
00000050: 3ada dbbc 9501 71bd 2761 653d 728d 2bbc
00000060: e1c2 b83c 5daa 9b3d 9918 b5bd 6d77 cdbc
00000070: bbf3 da3c 9347 85bd bdfb adbd 6860 90ba
00000080: 02e8 09be 8012 92bd d7d7 973d ac2d 113b
00000090: 6b8b b9bc ec65 60bd 44d3 06bd 0f8e 3cbd
000000a0: 423f 50bd 93fa 5b3d 4cfb 85bd 7009 8dbc
000000b0: 6fa2 a43c 0021 953c 08f5 7f3d caa2 d33d

arith.constant3 f4 [1, 5]
0.50139123 0.5081104 0.49049225 0.4923293 0.49524513
00000000: 2d5b 003f 8613 023f cd21 fb3e 9612 fc3e
00000010: c590 fd3e

arith.constant4 f4 [1, 5]
3.4524164 3.3792973 3.5098436 3.4647398 3.4238179
00000000: 64f4 5c40 6846 5840 47a1 6040 4cbe 5d40
00000010: d51f 5b40

arith.constant5 f4 [48, 5]
-0.04202754 0.07073373 0.07356524 0.23497199 -0.18418674 0.28014308 0.16658299 -0.34223688
-0.1167781 0.07071695 -0.1543782 -0.15923384 0.014441243 -0.14139117 -0.046610918 -0.24650995
-0.13922141 0.07317036 -0.019660173 -0.11852754 -0.019925369 0.06819915 0.0913873 0.22839715
0.06452629 -0.2120701 -0.16165783 -0.35514307 0.11401546 0.08200352 0.13553286 -0.20777413
-0.06268964 0.09325973 0.061861675 0.19385214 -0.07076685 -0.08527484 0.09439488 0.31460956
-0.28125247 -0.19598605 -0.23332195 -0.2741926 0.32581654 0.21184511 -0.08438708 -0.24532257
-0.024273744 0.1219711 0.28112307 -0.077686876 0.032814134 0.071043104 0.06513731 0.25378576
-0.3315135 0.24292047 0.06246119 0.21713616 0.058106907 -0.058988947 -0.043477703 -0.3467661
0.29016888 -0.20761062 -0.17276052 0.34447962 -0.23178656 -0.24876083 -0.28483507 0.29333493
0.14413972 -0.09694585 0.17885724 -0.08106843 0.21489702 -0.017677914 0.0016255967 0.051591065
0.21086068 -0.14959186 -0.27786332 0.23616515 -0.29168206 -0.27392188 0.15516037 -0.046507146
-0.17036171 -0.23295398 -0.29217452 -0.08853547 -0.2835305 0.27704787 -0.3237151 -0.3223831
-0.18462613 0.2197137 0.15113279 0.14577885 -0.0663055 0.30682695 0.11814997 -0.20626824
0.099536315 -0.12071559 0.18588239 -0.24459869 0.15123175 0.3291543 -0.22039624 0.17510837
-0.2869299 -0.15719116 -0.18768358 -0.32751456 -0.094640546 -0.085470684 -0.28295237 -0.016502388
0.36814526 0.12916404 0.35486928 -0.10709329 0.31578746 -0.38953024 -0.10178537 0.25418434
0.22885212 -0.16239166 0.0068227137 0.16211937 -0.038430378 0.12596947 -0.25615782 -0.12573037
-0.2194117 0.21216574 -0.35049275 0.28026947 0.16213992 0.05000517 -0.10090171 -0.28344205
-0.21450375 -0.10357733 0.29758722 -0.07157092 0.10040875 0.3152687 -0.20136593 0.3375365
0.23278514 -0.212424 0.21433726 -0.024317767 0.17765814 -0.23198228 0.1855121 -0.035658747
0.2019803 0.13163503 0.02681479 0.29560578 0.11635661 -0.08987042 -0.2321326 0.20292282
0.15404145 -0.26178026 0.27210918 0.2930401 -0.14487566 -0.334728 -0.28060925 -0.3170395
-0.0033002973 0.19769591 -0.33308393 0.22379307 0.25234133 0.01752996 0.22377546 0.008915145
0.25620368 0.25211307 0.21928261 0.17951824 0.36041513 -0.014730822 0.18937078 -0.14034964
-0.10469652 -0.075913504 -0.22107987 -0.20101525 0.13997798 -0.18469794 0.025617318 -0.14902702
-0.02931541 0.31701022 -0.20620279 0.14120245 -0.22317597 0.13752721 -0.32455945 0.39393628
0.07363865 0.23953971 0.29307798 -0.2948604 0.1960522 0.24986757 -0.20151189 -0.038488787
0.06233709 0.2659438 0.17949201 -0.053633887 -0.22324842 0.19421339 0.16742392 -0.120764256
-0.08836711 0.020320605 -0.20627159 -0.111480534 0.097359374 -0.025692375 -0.28177088 -0.26421753
-0.04133187 0.15335967 0.017475232 -0.19663478 0.10917535 0.32959306 0.1472333 -0.31957507
00000000: 1225 2cbd d9dc 903d 5fa9 963d 7f9c 703e
00000010: 739b 3cbe ea6e 8f3e bb94 2a3e ac39 afbe
00000020: 5b29 efbd 0cd4 903d 5215 1ebe 320e 23be
00000030: f79a 6c3c d9c8 10be 17eb 3ebd 1b6d 7cbe
00000040: 0f90 0ebe 57da 953d 5f0e a1bc 91be f2bd
00000050: 873a a3bc ffab 8b3d 4429 bb3d f1e0 693e
00000060: 5c26 843d e728 59be a189 25be 50d5 b5be
00000070: f080 e93d 76f1 a73d 20c9 0a3e bec2 54be
00000080: 6d63 80bd f5fe be3d ab62 7d3d 2d81 463e
00000090: 36ee 90bd 93a4 aebd 1a52 c13d 8114 a13e
000000a0: 5300 90be 91b0 48be f3eb 6ebe f962 8cbe
000000b0: 6dd1 a63e eded 583e 22d3 acbd d735 7bbe
000000c0: bbd9 c6bc fccb f93d 5def 8f3e 4c1a 9fbd
000000d0: 1d68 063d 0c7f 913d b666 853d 35f0 813e
000000e0: 23bc a9be 25c0 783e 4ed7 7f3d f158 5e3e
000000f0: 8201 6e3d 659e 71bd ad15 32bd 548b b1be
00000100: 0491 943e e197 54be 22e8 30be a25f b03e
00000110: 7559 6dbe 29bb 7ebe e7d5 91be ff2f 963e
00000120: 5d99 133e 8c8b c6bd 5a26 373e 3407 a6bd
00000130: f70d 5c3e 46d1 90bc f911 d53a 2751 533d
00000140: ddeb 573e 9c2e 19be 1a44 8ebe 47d5 713e
00000150: 5a57 95be 7d3f 8cbe 5ce2 1e3e 477e 3ebd
00000160: 4d73 2ebe 7d8b 6ebe e697 95be 1652 b5bd
00000170: e92a 91be 38d9 8d3e fcbd a5be 660f a5be
00000180: a20e 3dbe a1fc 603e 8ec2 1a3e 0d47 153e
00000190: 2ecb 87bd 6c18 9d3e 9df8 f13d fb37 53be
000001a0: b2d9 cb3d bc39 f7bd f457 3e3e 1478 7abe
000001b0: 7fdc 1a3e ea86 a83e 8daf 61be 9c4f 333e
000001c0: 7ae8 92be b8f6 20be 2030 40be fdaf a7be
000001d0: e7d2 c1bd 410b afbd 22df 90be 0430 87bc
000001e0: 897d bc3e 9443 043e 6db1 b53e ba53 dbbd
000001f0: e5ae a13e 8270 c7be d974 d0bd 7324 823e
00000200: 3658 6a3e 004a 26be 1291 df3b 9f02 263e
00000210: 2c69 1dbd 24fe 003e 1e27 83be 76bf 00be
00000220: 76ad 60be fa41 593e c973 b3be 7b7f 8f3e
00000230: 0208 263e 39d2 4c3d 8ea5 cebd 511f 91be
00000240: dfa6 5bbe 5a20 d4bd 5a5d 983e c693 92bd
00000250: 1aa3 cd3d e66a a13e df32 4ebe 96d1 ac3e
00000260: 3a5f 6e3e ad85 59be 3a7b 5b3e 0e36 c7bc
00000270: 04ec 353e c38c 6dbe e2f6 3d3e e80e 12bd
00000280: ecd3 4e3e 55cb 063e b1aa db3c a459 973e
00000290: 604c ee3d fc0d b8bd 2bb4 6dbe 00cb 4f3e
000002a0: 0bbd 1d3e 1008 86be e551 8b3e 5a09 963e
000002b0: 495a 14be 7861 abbe 04ac 8fbe 0053 a2be
000002c0: cd49 58bb cc70 4a3e fa89 aabe 032a 653e
000002d0: e232 813e fe9a 8f3c 6525 653e d410 123c
000002e0: 212d 833e f714 813e 9f8b 603e a1d3 373e
000002f0: 5588 b83e 8c59 71bc 6aea 413e d1b7 0fbe
00000300: 216b d6bd 8a78 9bbd c362 62be f1d6 4dbe
00000310: 6356 0f3e 7521 3dbe 69db d13c 8a9a 18be
00000320: df26 f0bc 2a4f a23e d326 53be 6097 103e
00000330: 3e88 64be efd3 0c3e a82c a6be 04b2 c93e
00000340: dccf 963d e649 753e 510e 963e f1f7 96be
00000350: e8c1 483e 49dd 7f3e 2259 4ebe 6ba6 1dbd
00000360: 2d55 7f3d c929 883e c1cc 373e 35af 5bbd
00000370: 3c9b 64be e0df 463e 2d71 2b3e 4053 f7bd
00000380: d1f9 b4bd 6677 a63c dc38 53be e84f e4bd
00000390: 5a64 c73d d178 d2bc 4644 90be 8547 87be
000003a0: 9b4b 29bd 510a 1d3e 3828 8f3c a15a 49be
000003b0: 5397 df3d 6cc0 a83e 54c4 163e 589f a3be

arith.constant6 f4 [6, 24]
-0.15512113 -0.2570581 -0.34299242 0.38047877 -0.3541266 -0.43993527 -0.028037004 -0.099042766
0.29124406 0.026060818 0.12398357 0.20030683 -0.27837425 -0.35622904 0.10042916 0.0019177067
0.26547378 -0.4219204 -0.44454625 -0.37103266 -0.22201449 0.114652105 0.2623505 -0.2859536
0.028966332 -0.2522978 0.16572973 -0.1819763 -0.3106322 0.00505569 0.09791434 -0.14173676
0.4554235 -0.22475937 -0.2347638 0.4027497 0.16467115 0.2536231 0.076168634 0.11644335
-0.36462235 0.18282124 -0.3663026 -0.5825077 -0.17083213 -0.031687073 0.32526535 -0.26874667
0.10992677 -0.37326303 0.28980577 -0.35693964 -0.0017623946 -0.13401015 0.17940511 -0.46508846
0.19499865 0.39034584 -0.4330298 0.05506685 -0.38844836 0.3139217 -0.5474559 0.07457612
-0.13946632 -0.20755544 -0.23399116 0.12822562 0.0013823787 -0.11497669 0.4240545 0.07755738
-0.07213197 -0.49807772 0.23247689 -0.010993674 -0.027605552 0.34968236 -0.32042667 0.006770848
-0.18605794 -0.3582352 -0.420405 -0.12181874 -0.2553814 0.020593451 -0.2991692 0.2626411
-0.15990357 0.2801347 -0.42142624 0.3614951 0.36412627 0.1361587 0.13004957 0.27652517
0.042648915 -0.09756188 -0.15462008 0.2540073 -0.333326 0.42649165 0.35572445 -0.37732297
0.48219374 0.25400385 0.19209309 0.045708984 -0.1273683 -0.4018729 0.14745024 -0.45464522
-0.24832463 -0.351027 0.27507678 -0.003395575 0.3382257 -0.24784124 -0.14284931 -0.048606064
0.10753555 0.2835256 0.46009618 0.26652285 0.3058362 0.1160386 -0.091280244 0.1271368
-0.06005866 -0.25384656 -0.2586426 -0.024294205 0.37069535 0.16949527 0.09230789 0.21216142
0.094180554 0.403637 -0.39718628 -0.2164991 -0.36183614 0.14171594 0.15196447 0.3437794
00000000: 13d8 1ebe 1f9d 83be b49c afbe 1dce c23e
00000010: 1550 b5be 323f e1be dcad e5bc efd6 cabd
00000020: f11d 953e 7f7d d53c 19eb fd3d 3c1d 4d3e
00000030: 1287 8ebe a763 b6be cead cd3d 8f5b fb3a
00000040: 2eec 873e f305 d8be 919b e3be fef7 bdbe
00000050: c457 63be b9ce ea3d ce52 863e 8368 92be
00000060: cd4a ed3c 2d2d 81be 0eb5 293e ff57 3abe
00000070: 2f0b 9fbe 34aa a53b 5087 c83d 7123 11be
00000080: 452d e93e 5227 66be ec65 70be 3535 ce3e
00000090: 8e9f 283e e3da 813e 4dfe 9b3d da79 ee3d
000000a0: c8af babe 7e35 3b3e 048c bbbe 3a1f 15bf
000000b0: 9eee 2ebe 4eca 01bd 2e89 a63e 2a99 89be
000000c0: 4921 e13d 551c bfbe 6c61 943e cbc0 b6be
000000d0: 2600 e7ba f539 09be f9b5 373e 1320 eebe
000000e0: baad 473e 69db c73e 15b6 ddbe c78d 613d
000000f0: b4e2 c6be 58ba a03e 1226 0cbf 5dbb 983d
00000100: 42d0 0ebe 6a89 54be 619b 6fbe 944d 033e
00000110: ef30 b53a e678 ebbd ac1d d93e 67d6 9e3d
00000120: edb9 93bd 0b04 ffbe 6c0e 6e3e d01e 34bc
00000130: 0a25 e2bc 9109 b33e f70e a4be fddd dd3b
00000140: f985 3ebe 9b6a b7be 533f d7be 1b7c f9bd
00000150: 5ac1 82be 99b3 a83c b52c 99be e578 863e
00000160: c3bd 23be d16d 8f3e 2ec5 d7be e315 b93e
00000170: c26e ba3e 306d 0b3e b72b 053e b594 8d3e
00000180: a1b0 2e3d 86ce c7bd ba54 1ebe 3f0d 823e
00000190: b5a9 aabe 1d5d da3e 8421 b63e 7a30 c1be
000001a0: 19e2 f63e cb0c 823e 0db4 443e 5839 3b3d
000001b0: d66c 02be 49c2 cdbe 32fd 163e 42c7 e8be
000001c0: d048 7ebe d0b9 b3be ddd6 8c3e 4c88 5ebb
000001d0: eb2b ad3e 18ca 7dbe 1747 12be 2717 47bd
000001e0: 993b dc3d 442a 913e ba91 eb3e af75 883e
000001f0: 9096 9c3e a5a5 ed3d 23f1 babd 2630 023e
00000200: 1200 76bd 2df8 81be ce6c 84be a404 c7bc
00000210: c8cb bd3e 2b90 2d3e eb0b bd3d d840 593e
00000220: bce1 c03d 82a9 ce3e 005c cbbe f1b1 5dbe
00000230: 9642 b9be fc1d 113e 939c 1b3e db03 b03e

tfl.pseudo_qconst i1 [24, 48]
-35 -25 -55 -36 23 -83 -79 82
-36 89 72 -5 -40 90 -40 80
16 -92 -44 -71 43 -59 -73 -16
67 -60 11 -70 112 -38 6 58
96 -29 -28 -50 -56 -38 -20 -64
-110 21 -127 -63 -7 50 -1 16
-114 113 -93 -43 116 -127 -26 124
-46 82 -86 -33 103 59 -39 -45
23 -28 -27 100 -67 -41 -47 17
-14 64 -51 -99 -58 -26 36 -33
-47 -25 57 -74 46 -10 69 89
-96 86 23 -79 29 -126 -100 101
-18 -31 73 -14 -59 42 -41 -18
72 80 36 42 3 127 -114 -100
62 93 16 91 -74 -65 -21 24
34 -6 35 -47 30 -36 -106 -67
60 -39 8 -1 -76 -51 34 54
-31 -47 10 -47 -92 29 80 -45
-35 28 -22 -70 -5 75 70 -30
86 8 -78 50 3 -2 -65 -19
38 -78 -21 82 19 74 99 -67
-46 -89 56 102 19 98 27 -11
-46 -86 -16 12 -66 -11 11 23
-48 34 68 85 -127 74 -45 -105
-24 -21 60 123 -52 -15 -14 105
59 -46 23 47 -37 28 11 2
-107 -34 75 43 43 100 -93 -76
117 40 -77 58 12 -73 -126 97
-100 -43 29 -3 127 110 81 -7
-40 91 -95 60 121 -22 76 87
18 71 -35 -62 126 -36 56 127
-47 -22 119 -48 23 -90 -34 13
00000000: dde7 c9dc 17ad b152 dc59 48fb d85a d850
00000010: 10a4 d4b9 2bc5 b7f0 43c4 0bba 70da 063a
00000020: 60e3 e4ce c8da ecc0 9215 81c1 f932 ff10
00000030: 8e71 a3d5 7481 e67c d252 aadf 673b d9d3
00000040: 17e4 e564 bdd7 d111 f240 cd9d c6e6 24df
00000050: d1e7 39b6 2ef6 4559 a056 17b1 1d82 9c65
00000060: eee1 49f2 c52a d7ee 4850 242a 037f 8e9c
00000070: 3e5d 105b b6bf eb18 22fa 23d1 1edc 96bd
00000080: 3cd9 08ff b4cd 2236 e1d1 0ad1 a41d 50d3
00000090: dd1c eaba fb4b 46e2 5608 b232 03fe bfed
000000a0: 26b2 eb52 134a 63bd d2a7 3866 1362 1bf5
000000b0: d2aa f00c bef5 0b17 d022 4455 814a d397
000000c0: e8eb 3c7b ccf1 f269 3bd2 172f db1c 0b02
000000d0: 95de 4b2b 2b64 a3b4 7528 b33a 0cb7 8261
000000e0: 9cd5 1dfd 7f6e 51f9 d85b a13c 79ea 4c57
000000f0: 1247 ddc2 7edc 387f d1ea 77d0 17a6 de0d
